Snake_game/model/model_300.pth (torch, 17003 bytes, 4 tensors)

linear1.weight f4 [256, 11]
0	0x3cc6f1f5	0.024285296
1	0xbe802cc7	-0.25034162
2	0xbe91f270	-0.28505278
3	0xbc82909a	-0.015938092
4	0xbe3b4696	-0.18288645
5	0x39e8be53	0.0004439229
6	0xbe0b9f03	-0.13634877
7	0x3d3a4bd0	0.045482457
8	0x3e00ff64	0.12597424
9	0x3d9b6c14	0.07588974
10	0x3d121356	0.03566297
11	0xbe042d43	-0.12907891
12	0x3e57412a	0.21020952
13	0xbe99844e	-0.29983753
14	0x3c116871	0.008874998
15	0x3dd398e8	0.10331899
16	0xbdd00751	-0.101576455
17	0xbcdc4661	-0.026889028
18	0xbea80116	-0.32813329
19	0x3e7f493b	0.24930279
20	0x3e5d95f6	0.21639237
21	0x3d0d6188	0.03451684
22	0x3e574b4c	0.21024817
23	0x3c4a75a6	0.012357151
24	0xbe2a4130	-0.1662643
25	0x3c6aec90	0.014338627
26	0x3e1c43d3	0.15260248
27	0x3d98b6e6	0.0745676
28	0xbdd0c8ea	-0.10194571
29	0x3e86f6d3	0.26360187
30	0xbe5f0562	-0.21779397
31	0x3e602d4a	0.21892276
32	0xbc5d47b8	-0.013505869
33	0xbe688d68	-0.22710192
34	0x3d8a6121	0.06756807
35	0x3d8a9438	0.06766552
36	0xbe42dc6c	-0.19029397
37	0x3dd1d80b	0.10246285
38	0xbd48599d	-0.048913587
39	0x3e5a5ab1	0.21323659
40	0xbe5248c9	-0.20535578
41	0xbb8fddcd	-0.0043904544
42	0xbe38be4a	-0.1804134
43	0xbdff4ecd	-0.12466202
44	0xbde29404	-0.11063388
45	0x3d8eb7e0	0.06968665
46	0xbe3eebe2	-0.1864467
47	0x3e3015de	0.17195842
48	0x3d3eb548	0.046559602
49	0xbe7d2013	-0.24719267
50	0xbd9986d6	-0.07496421
51	0xbd793d3c	-0.060849413
52	0xbe771b4c	-0.24131507
53	0xbd36c150	-0.04461795
54	0xbc9f1730	-0.019420236
55	0x3e82cb33	0.25545654
56	0xbc849170	-0.016182631
57	0x3ddd016c	0.10791287
58	0x3ddf376c	0.10899243
59	0xbe1f4b5a	-0.15556088
60	0x3e74c962	0.23904946
61	0xbe4eabc5	-0.20182712
62	0xbe90a009	-0.28247097
63	0xbe8f5f92	-0.28002602
64	0xbe6edfbb	-0.23327534
65	0xbe1e6947	-0.15469848
66	0xbe8662f9	-0.26247385
67	0x3ceb2910	0.028706104
68	0xbe6a8ba4	-0.22904831
69	0xbe6e9e2a	-0.23302522
70	0xbd0af189	-0.033921752
71	0xbe573940	-0.21017933
72	0xbd4fe9f6	-0.050760232
73	0x3e8e169f	0.27751634
74	0xbe845ef6	-0.258537
75	0xbd34a7af	-0.044105228
76	0xbe9061b0	-0.2819953
77	0x3cc74556	0.024325054
78	0x3e2b4578	0.16725719
79	0x3e3c61d9	0.18396701
80	0x3dfd50c7	0.12368923
81	0x3e7689fd	0.24076076
82	0xbdaf15e1	-0.08549095
83	0x3e30d336	0.1726807
84	0xbcf80149	-0.03027405
85	0x3e594444	0.21217448
86	0xbce24099	-0.027618693
87	0x3e8cbaaf	0.27486178
88	0x3e46a0fd	0.1939735
89	0x3dc8158b	0.09769734
90	0x3d186a11	0.037210528
91	0x3e26e827	0.16299497
92	0xbe4ef684	-0.20211226
93	0x3e2fbc99	0.17161788
94	0x3e39ad99	0.18132629
95	0xbe8ff5a0	-0.28117085
96	0x3d6e4076	0.058166943
97	0xbe4de24e	-0.2010586
98	0xbe310140	-0.17285633
99	0x3e7a2044	0.24426371
100	0xbe08eece	-0.13372347
101	0xbe0e8371	-0.13917328
102	0x3de3f883	0.11131384
103	0x3dbc9571	0.09208191
104	0x3e619fc7	0.22033606
105	0xbe0bfff3	-0.13671856
106	0x3ba43052	0.005010643
107	0xbe82c925	-0.25544086
108	0xbde5daab	-0.11223348
109	0xbcde338e	-0.027124193
110	0x3e2f70b6	0.1713284
111	0x3db8440a	0.089973524
112	0xbe465a06	-0.19370279
113	0x3dba6087	0.091004424
114	0xbe90f7d2	-0.28314072
115	0xbe88bfa5	-0.26708713
116	0xbe706013	-0.2347415
117	0x3d6bba49	0.057550702
118	0x3e8211d7	0.25404236
119	0xbe82aa03	-0.25520334
120	0x3ea250fa	0.31702405
121	0xbe94c5bf	-0.29057118
122	0xbbbe18e4	-0.005801307
123	0xbe7a8590	-0.24465013
124	0xbdf811dc	-0.121127814
125	0x3e1780ca	0.14795223
126	0xbe2b20c7	-0.16711722
127	0x3dcecd0a	0.10097702
128	0x3e16ff1e	0.14745757
129	0x3e49419d	0.19653936
130	0xbd7a968d	-0.061178733
131	0xbe8c9618	-0.27458262
132	0xbe990589	-0.29887035
133	0xbe2c5ba5	-0.16831835
134	0xbdd7c86b	-0.105362736
135	0xbe71b64c	-0.23604697
136	0x3e15da17	0.14633976
137	0x3e324a0e	0.17411062
138	0xbc75999b	-0.014990236
139	0x3dd7f82f	0.10545384
140	0x3e0978c3	0.13424973
141	0xbe44f342	-0.1923342
142	0xbcdd0293	-0.026978767
143	0xbe6321c8	-0.22180855
144	0xbea37e1a	-0.31932145
145	0xbd61f092	-0.055161066
146	0x3e1dac40	0.1539774
147	0xbe76d7cd	-0.24105759
148	0x3db70679	0.089367814
149	0x3e0ac1c9	0.13550486
150	0x3dd2d326	0.102941796
151	0x3d3dc3b4	0.046329215
152	0x3e7f375f	0.24923466
153	0x3d8e1537	0.0693764
154	0xbd3dade4	-0.046308413
155	0x3dd8c786	0.10584931
156	0x3e15114c	0.1455738
157	0x3d266458	0.04062304
158	0xbe9b102b	-0.30285773
159	0xbd4ec0dd	-0.050476898
160	0xbe8863bf	-0.266386
161	0x3da32c3e	0.07967423
162	0xbe79261d	-0.24330945
163	0x3e123e8d	0.14281674
164	0xbe0d7683	-0.1381474
165	0x3df559e6	0.119800374
166	0xbe15e994	-0.14639884
167	0x3e70b932	0.23508146
168	0x3e5456af	0.20736192
169	0x3b0ad4c0	0.0021183938
170	0x3e673bf8	0.2258147
171	0xbe017836	-0.12643513
172	0x3e81f6b0	0.2538352
173	0xbe8f99ac	-0.2804693
174	0x3e18365b	0.14864485
175	0x3e4bb9ac	0.19895047
176	0xbe70264b	-0.23452108
177	0x3e3850de	0.17999598
178	0xbd3bc8da	-0.045845844
179	0x3e82ca7f	0.25545117
180	0x3e80807c	0.25098026
181	0x3e654668	0.22390139
182	0x3e4e671b	0.20156519
183	0xbd0990f3	-0.0335855
184	0xbe095567	-0.13411485
185	0x3ea9b4c6	0.33145732
186	0xbce341b2	-0.027741287
187	0xbe592fb0	-0.21209598
188	0x3eb21f27	0.34789392
189	0x3e886233	0.2663742
190	0xbd79653f	-0.06088757
191	0x3e94fb22	0.2909785
192	0x3c4040cf	0.011734202
193	0x3d1b5830	0.0379259
194	0x3d9a062f	0.07520711
195	0xbe6358e0	-0.22201872
196	0xba0c5461	-0.00053531496
197	0x3d2bf0c8	0.041977674
198	0x3e453b90	0.19261003
199	0x3e133c3a	0.14378443
200	0x3e3abb51	0.18235518
201	0xbda3f076	-0.08004849
202	0xbdbb8f20	-0.09158158
203	0x3d5515aa	0.052022614
204	0x3c0d3811	0.008619324
205	0xbe3e4128	-0.18579543
206	0x3e854d5f	0.26035592
207	0xbe1a3863	-0.15060572
208	0xbe0de6a0	-0.13857508
209	0xbe9015f6	-0.28141755
210	0x3e69acc1	0.22819807
211	0x3d979ff3	0.07403555
212	0xbd83ea43	-0.06441166
213	0x3c960dcf	0.018317131
214	0x3ca13a92	0.019681249
215	0xbde50c30	-0.11183965
216	0x3b21d6ae	0.002469461
217	0x3e4384e2	0.1909366
218	0x3e3010ae	0.17193863
219	0xbe598477	-0.21241938
220	0xbe99a0af	-0.30005404
221	0xbe03a9e1	-0.12857772
222	0x3e983e0f	0.29734847
223	0x3da636ce	0.08115922
224	0x3e47811f	0.1948285
225	0xbdbd4a1c	-0.09242651
226	0xbe8d5ac8	-0.27608323
227	0x39b9b68f	0.00035421966
228	0x3e320f6c	0.17388695
229	0x3e1b5524	0.15169197
230	0xbe3406f0	-0.17580771
231	0x3d693933	0.056939315
232	0xbe18e176	-0.14929757
233	0xbe1f50e0	-0.15558195
234	0xbe71888c	-0.23587245
235	0xbe6e364c	-0.232629
236	0xbd787457	-0.060657825
237	0xbd6dfb34	-0.058100894
238	0x3e86e459	0.2634609
239	0xbdd2a599	-0.102854915
240	0xbe6aa187	-0.2291318
241	0xbdb0e41f	-0.08637261
242	0x3d1977dd	0.037467826
243	0x3e8c6b0b	0.27425417
244	0x3e935eb9	0.28783205
245	0x3d4a46a9	0.049383793
246	0xbddf32c3	-0.10898354
247	0xbe1850e0	-0.14874601
248	0xbe6e2268	-0.23255312
249	0x3e83c226	0.2573406
250	0x3e70d5be	0.23519036
251	0x3e86228f	0.2619824
252	0xbe57d22d	-0.2107627
253	0x3e595c7d	0.21226688
254	0x3d9cdd8f	0.076594464
255	0x3e687041	0.22699071

linear1.bias f4 [256]
0	0xbe5ac374	-0.21363622
1	0xbe87650b	-0.26444277
2	0x3dccbf44	0.099974185
3	0x3df9b7d7	0.12193268
4	0xbe779807	-0.24179088
5	0xbe8d41c0	-0.27589226
6	0xbe7c5f9d	-0.24645849
7	0x3dc02e02	0.09383775
8	0x3e8da92b	0.27668127
9	0xbdc26986	-0.09492783
10	0xbe43d22d	-0.19123144
11	0xbe4b36f9	-0.19845189
12	0xbe5e3daa	-0.2170321
13	0x3e83b3a6	0.25722998
14	0x3dcd3cc7	0.10021358
15	0xbe0a2861	-0.13491966
16	0x3e603cab	0.21898143
17	0x3e36f576	0.17867073
18	0xbc03e195	-0.008049388
19	0xbccde47a	-0.02513336
20	0xbe9a1ddc	-0.30100906
21	0x3e77b28f	0.24189208
22	0x3e61a71e	0.22036406
23	0xbda2c3f8	-0.07947534
24	0xbe245bba	-0.16050616
25	0x3e2b7f5c	0.16747802
26	0xbc95b45a	-0.018274475
27	0x3cc7e1cc	0.02439966
28	0xbc09adab	-0.008403222
29	0xbdbfe313	-0.09369483
30	0xbe87dc43	-0.26535234
31	0x3ccd7e9c	0.025084786
32	0x3d0726fd	0.032996166
33	0xbe8bdf3f	-0.2731876
34	0xbcef8f3c	-0.029243104
35	0x3e1163a3	0.14198165
36	0x3e074dc8	0.13213265
37	0xbe893c38	-0.26803756
38	0x3dfef6ee	0.12449442
39	0xbe92e3b7	-0.28689358
40	0x3e913a89	0.2836497
41	0x3e8ab4db	0.27091107
42	0xbdd34b24	-0.10317066
43	0x3d094f1b	0.033522706
44	0xbdde4c8e	-0.108544454
45	0xbda0abfc	-0.078453034
46	0xbe168ff7	-0.14703356
47	0x3d818f2c	0.06326136
48	0x3d90b021	0.07064844
49	0x3e858cc2	0.26083952
50	0xbc83094a	-0.01599564
51	0xbe6e9760	-0.23299932
52	0xbd38f522	-0.045155652
53	0xbb212820	-0.0024590567
54	0x3e05a719	0.13052024
55	0xbd24db06	-0.04024794
56	0xbb94f9bf	-0.0045463736
57	0x3cc41ae2	0.0239386
58	0x3dbf5b8f	0.09343635
59	0xbe3e7341	-0.18598653
60	0x3d95d99f	0.073168986
61	0x3e270dec	0.16313905
62	0xbe1c0748	-0.15237153
63	0xbe3b280f	-0.18277
64	0x3ce1271f	0.027484475
65	0xbe8b670f	-0.27227065
66	0xbea23c90	-0.3168683
67	0xbd9209ff	-0.07130813
68	0xbe5b268e	-0.21401426
69	0xbe2d548a	-0.1692678
70	0x3e032dfc	0.1281051
71	0xbdcda743	-0.10041668
72	0xbc9407be	-0.018070098
73	0x3cdb19bc	0.02674567
74	0xbde2b2b5	-0.11069242
75	0x3e39afb3	0.1813343
76	0x3e4e54ca	0.20149532
77	0xbc080180	-0.008301139
78	0xbdf18195	-0.11792294
79	0xbe456639	-0.19277276
80	0x3dcd4ffd	0.10025022
81	0x3dae6900	0.08516121
82	0xbe2ede91	-0.1707709
83	0xbd7268fc	-0.059182152
84	0xbb8b0b65	-0.0042433017
85	0xbeaa64aa	-0.33279926
86	0xbe8386bd	-0.25688735
87	0xbdd41719	-0.10355968
88	0xbd8e6aab	-0.06953939
89	0x3e638c31	0.22221448
90	0x3e62ff1a	0.22167626
91	0x3e6aa4cb	0.22914426
92	0x3e7cd8b6	0.24692044
93	0xbe201348	-0.15632355
94	0xbe78ec19	-0.24308814
95	0xbe3a7e4a	-0.18212238
96	0x3d2ef574	0.04271455
97	0x3de4779e	0.11155628
98	0xbe6fde6c	-0.23424691
99	0x3e759b79	0.2398509
100	0xbe4752fa	-0.19465247
101	0x3c813b99	0.015775489
102	0xbea411aa	-0.32044727
103	0x3e60087e	0.2187824
104	0xbdeff31a	-0.1171629
105	0xbe84d630	-0.25944662
106	0x3e2c2b1a	0.16813317
107	0xbe01d1c8	-0.12677681
108	0xbd012451	-0.031528775
109	0x375bcbb4	1.31008455e-05
110	0xbdb220d3	-0.08697667
111	0xbe31602a	-0.1732184
112	0x3ea77d85	0.3271295
113	0x3e5e7975	0.2172602
114	0x3e2f07df	0.17092846
115	0xbe8cb485	-0.27481475
116	0xbdb4ad64	-0.08822134
117	0x3e0c7f79	0.13720502
118	0xbea7bc5e	-0.327609
119	0x3d8b0754	0.06788507
120	0x3eb31163	0.34974203
121	0x3e11efdd	0.14251657
122	0x3e3e36f4	0.1857565
123	0xbdfcd1ac	-0.12344679
124	0xbcb2ab00	-0.021810055
125	0x3d8d5656	0.06901233
126	0x3d53f2af	0.051745113
127	0x3c87159b	0.016489794
128	0xbd7ce422	-0.061741002
129	0x3e8d9df9	0.27659586
130	0xbe10ef1b	-0.14153711
131	0xbd75213f	-0.05984616
132	0xbb0586ad	-0.0020374462
133	0xbe4c3e09	-0.1994554
134	0xbde7fc96	-0.11327474
135	0x3d5f5af7	0.05453011
136	0xbcc30c3f	-0.02380955
137	0x3e6c6f5c	0.23089355
138	0x3dead67a	0.114666894
139	0xbd640e14	-0.05567749
140	0xbe5ac615	-0.21364625
141	0xbe7dd63f	-0.2478876
142	0xbe99d971	-0.30048707
143	0x3e49d384	0.19709593
144	0x3e0390d9	0.12848224
145	0x3dd94da8	0.10610515
146	0x3dec0326	0.11524038
147	0x3dbc1663	0.091839574
148	0x3daab01a	0.0833437
149	0x3e140c3a	0.14457789
150	0xbe5a8210	-0.21338677
151	0x3c487140	0.012234032
152	0x3bb00f05	0.005372884
153	0xbe861ff7	-0.26196262
154	0xbe7df49e	-0.24800345
155	0xbe59bed3	-0.212642
156	0x3ea7382a	0.32660037
157	0x3e5e2393	0.21693258
158	0x3e916e3e	0.2840442
159	0x3e4ce7f1	0.20010354
160	0x3e34301e	0.1759648
161	0xbe96ff96	-0.29491872
162	0xbe061930	-0.13095546
163	0x3e4e17c4	0.20126253
164	0x3d84ef27	0.06490927
165	0xbdc0e186	-0.09418015
166	0xbe1f4e61	-0.15557243
167	0xbe4194a9	-0.18904366
168	0xbe8370bd	-0.2567195
169	0x3e48709f	0.19574212
170	0xbe0fe88f	-0.14053558
171	0x3cf1fac7	0.029538525
172	0xbe2c4d4c	-0.16826361
173	0x3d91ea6c	0.071247905
174	0x3e1bf0a4	0.15228516
175	0x3e068199	0.13135375
176	0x3e34b9f8	0.17649066
177	0x3e22878c	0.1587202
178	0x3e7163d6	0.2357324
179	0xbe57fee5	-0.21093328
180	0x3deaa054	0.114563614
181	0xbdf6c444	-0.120491534
182	0x3e9fd210	0.31214952
183	0xbea30aae	-0.31844085
184	0x3e626600	0.22109222
185	0x3e6676a1	0.22506191
186	0xbe65f6e2	-0.2245746
187	0xbe8f03f8	-0.27932715
188	0x3ea78f16	0.32726353
189	0x3e64cf9e	0.22344825
190	0x3e39a71a	0.1813015
191	0xbe6b6356	-0.22987112
192	0xbe61662d	-0.22011633
193	0x3e95f886	0.2929117
194	0xbe8b1faf	-0.2717261
195	0xbd5848d4	-0.05280383
196	0xbe480c6f	-0.19535993
197	0x3ead2645	0.3381826
198	0xbe5a6f64	-0.21331555
199	0x3e120607	0.14260112
200	0x3e2d9482	0.16951182
201	0xbdc4d388	-0.09610659
202	0x3d9852cc	0.07437667
203	0xbeaee419	-0.341584
204	0x3e61aa24	0.2203756
205	0xbe6ad900	-0.22934341
206	0x3e997acb	0.29976496
207	0x3d44e56a	0.04807035
208	0x3defe8f6	0.11714356
209	0xbd653c23	-0.055965554
210	0x3cc2b723	0.023768967
211	0xbd7a8859	-0.061165188
212	0x3e12a67e	0.14321324
213	0xbe37ed95	-0.17961724
214	0xbd3106c3	-0.04321934
215	0x3e668e5c	0.22515243
216	0x3e9a6a10	0.30159044
217	0x3cd02474	0.025408007
218	0xbe1b32a1	-0.15156032
219	0xbdb96979	-0.090533204
220	0xbe0a78c1	-0.13522626
221	0xbe1911a9	-0.14948143
222	0x3d06921f	0.032854196
223	0xbe194eb6	-0.14971432
224	0xbe30c45d	-0.17262407
225	0x3e8cf5ad	0.27531186
226	0x3d21bdd7	0.039487686
227	0xbe88fe67	-0.26756594
228	0x3e8f04f5	0.2793347
229	0xbe4cbfb6	-0.19995007
230	0xbe7c4fd2	-0.24639824
231	0x3e8a46c4	0.27007115
232	0xbe842f4b	-0.25817332
233	0x3e8b5327	0.27211878
234	0xbd9d1da0	-0.07671666
235	0xbe186f4e	-0.1488621
236	0xbe7a2b7e	-0.24430653
237	0x3e260161	0.16211464
238	0xbe16529b	-0.14679949
239	0x3e36a368	0.17835772
240	0x3ea5eba1	0.32406333
241	0xbdc4202d	-0.095764495
242	0x3e7f9ae5	0.24961431
243	0x3e0525bf	0.1300268
244	0x3d962001	0.07330323
245	0xbe912e0b	-0.2835544
246	0xbe50988d	-0.20370694
247	0xbe67d462	-0.22639611
248	0x3e94ffb0	0.29101324
249	0xbe5dd499	-0.21663131
250	0x3e6e5749	0.23275484
251	0x3dc47208	0.09592062
252	0xbe3faf26	-0.18719158
253	0x3e822be7	0.2542412
254	0x3ea0d862	0.31415087
255	0x3d4e5c2d	0.050380874

linear2.weight f4 [3, 256]
0	0xbc0d21dc	-0.00861403
1	0x3d7de15b	0.061982494
2	0xbd80b99e	-0.06285404
3	0xbba1244d	-0.0049176575
4	0xbd5b862c	-0.053594753
5	0xbd0cedc6	-0.034406446
6	0xbcb5bc52	-0.022184525
7	0xbbf6f05a	-0.0075359764
8	0xbd0b659c	-0.03403245
9	0x39a567a6	0.00031548477
10	0xbc7722df	-0.0150839975
11	0xbcc9ac9e	-0.024618443
12	0xbcaa3fa5	-0.020782301
13	0x3b674e35	0.0035294418
14	0xbc9f3c6a	-0.019437987
15	0xbd578d51	-0.052625004
16	0xbd6a9c83	-0.057278167
17	0xbd0e9547	-0.03481033
18	0xbdc762cc	-0.09735641
19	0x3d8cb03e	0.06869553
20	0xbbff522f	-0.0077917795
21	0xbd81dd43	-0.063410304
22	0xbc9207a9	-0.017825918
23	0x3ba3b936	0.004996444
24	0xbb251c4e	-0.0025193873
25	0xbdad5b64	-0.08464697
26	0x3ce11476	0.027475577
27	0xbd7d28a8	-0.06180635
28	0xbc8abcfa	-0.016935814
29	0x3c3dfe33	0.01159625
30	0xbd49a14f	-0.0492261
31	0xbd8b1f2e	-0.067930564
32	0x3c93bfcb	0.01803579
33	0xbd793362	-0.060840018
34	0xbbcb7faa	-0.006210287
35	0xbdbfa328	-0.093572915
36	0x3c9039a6	0.017605614
37	0xbcb78349	-0.022401469
38	0xbd3eb9f0	-0.046564043
39	0x3d751b48	0.05984047
40	0x3d8920a2	0.06695677
41	0xbd847831	-0.06468237
42	0xbd146181	-0.0362258
43	0xbd6d3c70	-0.057918966
44	0xbd92856a	-0.07154353
45	0x3c86bdbf	0.0164479
46	0xbdabda13	-0.08391204
47	0x3c209018	0.00979998
48	0x3c3fef65	0.011714791
49	0xbc584795	-0.01320066
50	0xbd2afb6b	-0.041743677
51	0x3d4ca7df	0.04996478
52	0xbd8638a6	-0.065537736
53	0xbb5d3e02	-0.0033758883
54	0xbd061faa	-0.03274504
55	0x3bb61a9d	0.005557372
56	0xbd465eaf	-0.04843014
57	0x3d00a468	0.03140679
58	0xbd4ba257	-0.049715366
59	0xbd4a44cb	-0.049382012
60	0xbc391c4f	-0.011298253
61	0x3cca01b4	0.024659015
62	0x3d343943	0.04399992
63	0xbdcf2f83	-0.10116484
64	0x39fa0a46	0.0004769137
65	0xbc89d3cd	-0.016824627
66	0xbd27371b	-0.040824037
67	0xbd96c65b	-0.07362052
68	0x3c90f249	0.017693656
69	0xbba25800	-0.004954338
70	0xbce5fc1d	-0.028074319
71	0x3d4f7b14	0.050654486
72	0xbd7fa386	-0.062411807
73	0xbbdd9774	-0.0067624394
74	0xbd059056	-0.032608353
75	0x3ca63824	0.020290442
76	0x3c58a6f2	0.013223397
77	0xbc2cab1c	-0.0105388425
78	0xbc7c0d18	-0.015383981
79	0xbdb2b8af	-0.08726632
80	0xbda6dbc1	-0.081473835
81	0xbd52c094	-0.051453188
82	0x3c1c3e52	0.009536343
83	0xbc7ed138	-0.015552811
84	0xbc0a33ea	-0.008435229
85	0x3cd26b6c	0.025685988
86	0x3c44097f	0.011965155
87	0xbb6c1f8e	-0.003602955
88	0xbb21ff4a	-0.0024718815
89	0xbd516d58	-0.05112967
90	0x3c0b3a7c	0.0084978305
91	0xb9745025	-0.0002329951
92	0xbd86fcad	-0.06591163
93	0x3cc8ef21	0.024528088
94	0xbd5063ef	-0.050876554
95	0x3d06ba34	0.03289242
96	0xbd1c5746	-0.038169168
97	0x3ca20c08	0.019781128
98	0xbd310bd8	-0.043224186
99	0xbd1b6e0c	-0.037946746
100	0x3b0fdd78	0.0021952074
101	0xbaae9963	-0.0013320859
102	0xbbb5f3b2	-0.0055527324
103	0x3c8c3ae2	0.017117921
104	0xbdce8bd4	-0.10085264
105	0x3ce0d052	0.027443085
106	0x3cb54aac	0.022130333
107	0x3d33ff0d	0.043944407
108	0x3d2558f4	0.040368035
109	0xbcecdf1a	-0.028914977
110	0x3d168f38	0.036757678
111	0xbd699e1c	-0.05703555
112	0xbd7e0aa0	-0.06202185
113	0xbd164453	-0.036686253
114	0xbc869a63	-0.01643104
115	0xbd7320bc	-0.05935739
116	0xbdc2d46f	-0.09513175
117	0xbd27193a	-0.040795542
118	0x3c830e8a	0.015998144
119	0xbd3d18db	-0.046166282
120	0xbd954873	-0.07289209
121	0xbdd15184	-0.10220626
122	0xba8e4166	-0.001085323
123	0x3d3a5ecb	0.045500558
124	0xbbeafd50	-0.0071713105
125	0x3c5e6694	0.013574261
126	0x3d0c3c4e	0.0342372
127	0xbcb3d5d4	-0.021952547
128	0x3c724f41	0.014789403
129	0xbd043c67	-0.032284167
130	0xbd826d18	-0.06368464
131	0xbcff2f7b	-0.03115057
132	0xbd405993	-0.046960425
133	0xbc7c6d94	-0.015406985
134	0xbd091bca	-0.033473767
135	0xbdceebc3	-0.10103562
136	0x3c46741d	0.0121126445
137	0x3ccbb570	0.02486679
138	0xbda9f73e	-0.08299111
139	0xbd971027	-0.07376128
140	0xbd9c954e	-0.07645665
141	0xbd1f8dcf	-0.0389536
142	0xbccb2c79	-0.02480148
143	0x3c289f3b	0.01029187
144	0xbd29f6bc	-0.04149507
145	0x3c7a1169	0.01526294
146	0xbcd016d0	-0.025401503
147	0xbcf16404	-0.029466636
148	0x3e1090b6	0.14117703
149	0xbd987dbc	-0.07445857
150	0xbcab0948	-0.02087845
151	0xbcaa1b67	-0.02076502
152	0x3a782221	0.0009465535
153	0x3d3ec9c3	0.046579134
154	0xbd7646f8	-0.060126275
155	0x3d80941f	0.06278252
156	0xbd1771be	-0.036973707
157	0x3b6f7c64	0.0036542648
158	0xbbd0e8df	-0.0063754166
159	0x3cce8698	0.025210664
160	0xbd9bb430	-0.076027274
161	0x3d625654	0.05525811
162	0xbc0a60c6	-0.008445924
163	0x3bd9184d	0.0066252113
164	0x3c6c8fc8	0.014438577
165	0xbda2a8e4	-0.079423696
166	0xbdca4726	-0.09876852
167	0x3c107ec4	0.008819286
168	0x3dda2db6	0.1065325
169	0xbacddc2e	-0.0015705877
170	0xbbd67ef3	-0.0065458952
171	0xbd5f033a	-0.054446436
172	0xbd54adc9	-0.051923547
173	0xbd882ab0	-0.06648767
174	0xbc2e2696	-0.010629317
175	0xbd6c230e	-0.05765062
176	0xbc3643c2	-0.011124553
177	0xbd4ada0e	-0.04952436
178	0x3ca1b670	0.019740313
179	0xbc0a02b6	-0.008423498
180	0xbc4f1860	-0.012640089
181	0x3d4052cc	0.04695396
182	0x3d617946	0.055047296
183	0xbcfe1f4a	-0.03102078
184	0xbcd37697	-0.025813384
185	0xbe0b48b2	-0.1360195
186	0xbbfb3b66	-0.007666993
187	0x3d450fc6	0.048110746
188	0xbcecfdc5	-0.0289296
189	0x3bc2240a	0.0059247063
190	0xbabcf613	-0.0014416598
191	0x3d35b8fe	0.044365875
192	0x3d0c749f	0.034290906
193	0xbd991ea2	-0.07476546
194	0xbdab7765	-0.08372382
195	0xbc91a3ec	-0.01777836
196	0xbdae54c0	-0.085122585
197	0xbd4a5d21	-0.04940522
198	0x3c7da143	0.015480342
199	0xbd4f277b	-0.05057476
200	0x3c443884	0.011976365
201	0x3d0f2559	0.034947727
202	0xbccfa02e	-0.025344934
203	0x3d21c8af	0.039498027
204	0xbda5451f	-0.080698244
205	0x3d102f20	0.035201192
206	0xbda25e66	-0.07928161
207	0xbdeed6fc	-0.11662099
208	0xbc315e55	-0.010825713
209	0x3ad0f0a5	0.0015940858
210	0xbca42b23	-0.0200401
211	0x3ca6ba3a	0.020352472
212	0x3b3297f0	0.0027251206
213	0x3c154311	0.009110228
214	0xbc0edea4	-0.008720074
215	0xbd2e5141	-0.04255796
216	0xbcd97710	-0.026546031
217	0x3d04f731	0.032462303
218	0x3cc14b79	0.023595558
219	0xbaa23e17	-0.0012378123
220	0xbcd137e2	-0.025539342
221	0x3c5fe7fa	0.013666147
222	0xbb6e5bac	-0.0036370559
223	0x3d4a8440	0.04944253
224	0xbcb40c48	-0.021978512
225	0x3ca7fe95	0.020507136
226	0xbd6ba7aa	-0.057532944
227	0x3cef5bcf	0.029218582
228	0x3cc8ae48	0.024497166
229	0xbc7de5e5	-0.015496706
230	0xbcdc7cf5	-0.026915053
231	0x3bdb4e7e	0.0066927066
232	0xbd42b009	-0.04753116
233	0xbd13d67a	-0.036093213
234	0x3c869523	0.016428536
235	0xbd35d3f7	-0.0443916
236	0x3b9c9648	0.004778657
237	0xbb9c16e5	-0.0047634714
238	0x3c9c321f	0.019066868
239	0xbd811d71	-0.06304444
240	0xbdb62497	-0.08893698
241	0x3d045290	0.0323053
242	0x3d16889e	0.036751382
243	0xbd889a72	-0.06670083
244	0x3a27839a	0.00063901546
245	0xbda0058b	-0.07813557
246	0xbde4f402	-0.11179353
247	0xbda8da1c	-0.08244726
248	0xbd8f5481	-0.0699854
249	0xbd182027	-0.037140038
250	0xbd8f61eb	-0.07001098
251	0xbda7843c	-0.081795186
252	0x3cc2557c	0.023722403
253	0xbdc56cce	-0.096398935
254	0xbc050dbc	-0.00812095
255	0x3c4e6543	0.012597385

linear2.bias f4 [3]
0	0xbd4a510b	-0.049393695
1	0xbdbdfb4e	-0.09276448
2	0xbd52ecba	-0.05149529
