Snake_game/model/model_200.pth (torch, 16787 bytes, 4 tensors)

linear1.weight f4 [256, 11]
0	0x3e9b7121	0.30359748
1	0x3e430fc7	0.19048987
2	0xbd6713e9	-0.056415472
3	0x3e310b63	0.172895
4	0xbd1639ed	-0.036676336
5	0x3dbe10fb	0.092805825
6	0xbce32a57	-0.02773015
7	0x3d79bf04	0.060973182
8	0x3e8c3a44	0.27388203
9	0x3da4612a	0.08026345
10	0x3e8e2ac9	0.27767017
11	0xbe677018	-0.22601354
12	0xbd2758a0	-0.040856004
13	0xbed4295f	-0.41437814
14	0x3ee014c2	0.43765837
15	0x3e2263c1	0.15858366
16	0xbeeb049c	-0.45901954
17	0x3dfd5be3	0.123710416
18	0xbf21c3f3	-0.6318962
19	0xbe5cf930	-0.21579432
20	0x3e877ebb	0.26463875
21	0xbe422ac9	-0.18961634
22	0xbec9ce70	-0.39415312
23	0xbe4b2946	-0.19839963
24	0xbd8c8f42	-0.06863262
25	0xbe226559	-0.15858974
26	0xbe07caac	-0.13260907
27	0xbe1d3375	-0.1535166
28	0x3ecb47ff	0.39703366
29	0x3d20faf3	0.039301824
30	0xbed3f815	-0.4140021
31	0xbe8c61ac	-0.27418268
32	0xbe061bd5	-0.13096555
33	0xbe824c7f	-0.25448987
34	0xbdb302a8	-0.08740741
35	0xbdbd8070	-0.09253013
36	0x3e4281f0	0.1899488
37	0x3e349b83	0.17637448
38	0xba1a1e00	-0.0005879104
39	0xbe2d43d5	-0.16920407
40	0xbd81b8a3	-0.06334045
41	0xbd50e1e6	-0.050996684
42	0x3ca44de5	0.020056674
43	0xbdcfabaa	-0.10140164
44	0x3dbf75c6	0.093486354
45	0x3de183a0	0.110114336
46	0x3eaa2e56	0.33238477
47	0xbe671a25	-0.22568567
48	0xbe086e0f	-0.13323234
49	0xbe07995c	-0.13242096
50	0xbe80e72a	-0.25176364
51	0x3ed96ead	0.4246725
52	0x3ed1bdc2	0.40965086
53	0x3ebc07c3	0.36724672
54	0x3ef755fc	0.48307788
55	0x3ea5932c	0.32338846
56	0xbf22e50d	-0.63630754
57	0x3e416abd	0.18888374
58	0x3eb18669	0.3467286
59	0xbe9d60c4	-0.3073789
60	0xbd96ac2a	-0.073570564
61	0xbee6784a	-0.45013648
62	0xbeeb57df	-0.45965478
63	0x3ea5ac5f	0.3235807
64	0xbd0d3555	-0.03447469
65	0x3ec5c482	0.38626486
66	0x3ea3ac9c	0.31967628
67	0xbd4cd3cd	-0.050006676
68	0x3ee51cb8	0.44748473
69	0xbdba1f90	-0.09088051
70	0x3d197f19	0.037474725
71	0xbefe5b9d	-0.4967927
72	0x3de2ece6	0.11080341
73	0x3eb4284c	0.35186994
74	0xbda3503f	-0.0797429
75	0x3f082bf2	0.53192055
76	0x3d0c5b6b	0.03426687
77	0xbedd1807	-0.43182394
78	0x3d17a4a7	0.03702226
79	0xbd322554	-0.04349263
80	0xbe96d886	-0.2946207
81	0x3e8f9738	0.28045058
82	0x3eb29bde	0.34884542
83	0x3cfc3a2a	0.030789454
84	0x3e784add	0.24247308
85	0xbe8a2570	-0.26981688
86	0xbeb5cde5	-0.35508648
87	0xbe16521f	-0.14679764
88	0xbea66a8f	-0.32503173
89	0xbf0242ae	-0.50882995
90	0x3f2242b8	0.63383055
91	0x3cf1ab5f	0.029500661
92	0xbe5acd28	-0.21367323
93	0x3ccf3ca3	0.025297469
94	0x3e2316e7	0.15926705
95	0xbe834572	-0.2563892
96	0xbf182e2c	-0.5944545
97	0x3e375b9b	0.17906038
98	0x3df196e7	0.117963605
99	0xbd7776aa	-0.0604159
100	0x3d9e5aa5	0.07732133
101	0xbe0beb13	-0.13663892
102	0xbdc1f298	-0.09470099
103	0xbe697eec	-0.22802323
104	0x3ef09117	0.46985695
105	0x3eae6e9e	0.3406877
106	0x3ea41df7	0.3205411
107	0x3eef2a90	0.4671216
108	0xbeb27724	-0.34856522
109	0xbef17b37	-0.47164318
110	0xbf09e779	-0.53868824
111	0x3e9a5a1c	0.30146873
112	0x3e74f988	0.23923314
113	0xbd1c4a6d	-0.038156915
114	0xbd91730b	-0.07102021
115	0x3e190c45	0.14946087
116	0xbf394256	-0.72366846
117	0x3e8295d2	0.2550493
118	0x3e3b33a1	0.18281414
119	0x3df6fc8a	0.12059887
120	0xbecf4df8	-0.40489173
121	0x3f098b08	0.5372777
122	0x3d06ceb2	0.032911964
123	0xbcd867b2	-0.026416633
124	0xbe9f0f36	-0.31066293
125	0xbe237782	-0.15963557
126	0x3ec29164	0.3800155
127	0x3ed87c95	0.4228255
128	0x3eaf8d7e	0.34287637
129	0x3e2df414	0.1698764
130	0xbecde515	-0.40213838
131	0xbf00508f	-0.5012292
132	0x3dfd6fcd	0.1237484
133	0x3e8ce84d	0.2752098
134	0xbd92ffef	-0.07177722
135	0x3ec2fbd0	0.38082743
136	0xbe0108ee	-0.12601063
137	0x3d8fe1ac	0.07025465
138	0xbe9500d7	-0.29102203
139	0x3e344c44	0.17607218
140	0xbe0b02f7	-0.1357535
141	0xbea6416b	-0.32471785
142	0xbe42b9d9	-0.19016208
143	0x3d9a837e	0.075446114
144	0xbe55b612	-0.20870236
145	0xbf1ba9b8	-0.60805845
146	0xbe4d54fb	-0.20051949
147	0xbe1f4ea0	-0.15557337
148	0xbd2ba171	-0.04190201
149	0xbe2455a2	-0.16048291
150	0xbd955513	-0.07291617
151	0x3bcf43de	0.006325229
152	0x3cf494e5	0.029856155
153	0x3dfb32b6	0.12265532
154	0xbd1677b1	-0.03673524
155	0x3ead1c19	0.338105
156	0xbd1b7242	-0.03795076
157	0xbcc67d73	-0.02422974
158	0xbe3e8fd2	-0.1860955
159	0xbdc437e9	-0.095809765
160	0xbe7d42e6	-0.24732551
161	0x3d8176c9	0.063214846
162	0x3cafba57	0.021451158
163	0x3dfe0613	0.12403502
164	0x3e34562c	0.17610997
165	0xbd4bfa20	-0.049799085
166	0xbd87cd38	-0.06630939
167	0x3dd306d8	0.1030404
168	0xbe8fc795	-0.28081957
169	0x3d8aee5f	0.06783747
170	0xbe3b59ca	-0.1829597
171	0xbd162ef2	-0.036665864
172	0xbe83d4df	-0.25748345
173	0xbe303953	-0.17209367
174	0xbe6bf94a	-0.23044315
175	0x3d64676d	0.055762697
176	0xbe06860d	-0.13137074
177	0x3e501d36	0.20323643
178	0x3da0ab55	0.07845179
179	0xbd93fd81	-0.072260864
180	0xbdfc9340	-0.12332773
181	0x3eca4aaa	0.3951009
182	0xbdf2ed1d	-0.11861632
183	0x3e7ed884	0.24887282
184	0x3ea15b84	0.31515133
185	0xbe941d43	-0.28928575
186	0x3e8395fd	0.2570037
187	0x3d5ad3b7	0.053424563
188	0xbee69869	-0.45038155
189	0x3e3524f3	0.17689876
190	0xbf15d66d	-0.5853031
191	0x3ee4a20c	0.44654882
192	0xbe34b078	-0.17645442
193	0xbf0f3623	-0.5594198
194	0xbf606bd1	-0.87664515
195	0x3ebc7eaa	0.36815387
196	0xbf1f7e79	-0.62302357
197	0xbf035079	-0.51294667
198	0xbd7d1289	-0.061785255
199	0xbeb2d2d5	-0.34926477
200	0x3e75b3bc	0.23994344
201	0x3e860268	0.2617371
202	0x3e9a353e	0.30118746
203	0xbedef1b8	-0.43543792
204	0x3d8e5a69	0.06950838
205	0x3eb97be2	0.36227328
206	0x3dd86820	0.10566735
207	0xbeed4326	-0.46340293
208	0xbe83410e	-0.2563557
209	0xbf142d34	-0.57881474
210	0xbe5e322b	-0.21698825
211	0x3f0d7c77	0.55268043
212	0x3e6ecd7c	0.23320574
213	0x3e87536c	0.26430833
214	0x3df8109a	0.121125415
215	0x3e1c9d86	0.15294465
216	0x3d9a11dc	0.07522938
217	0xbac2f8bf	-0.0014875158
218	0xbda88be9	-0.08229811
219	0xbd3c01f4	-0.0459003
220	0x3e6fe506	0.2342721
221	0xbe98e418	-0.29861522
222	0x3f145378	0.57939863
223	0xbeea97ee	-0.45819038
224	0xbda1636b	-0.078802906
225	0xbf1f7847	-0.62292904
226	0xbd9f846e	-0.07788931
227	0x3e7a278c	0.24429148
228	0xbe958599	-0.2920349
229	0x3d3b3734	0.045706943
230	0xbc37b96d	-0.011213643
231	0xbf139c30	-0.576602
232	0x3e0761a0	0.13220835
233	0x3e15fd04	0.14647299
234	0xbe108478	-0.14113033
235	0xbe0cef95	-0.13763268
236	0xbc123cc4	-0.0089256205
237	0xbdc0a006	-0.09405522
238	0xbdbf42ad	-0.09338889
239	0xbd5e0506	-0.05420401
240	0xbdd89ad8	-0.10576409
241	0xbd7093ed	-0.058734823
242	0xbdf4f4d6	-0.11960761
243	0xbcf61fec	-0.030044518
244	0x3e96002f	0.29297015
245	0x3defcc66	0.11708908
246	0xbdf523ac	-0.119696945
247	0xbdbf91da	-0.09353991
248	0x3d4582bf	0.048220392
249	0x3ea69ec3	0.32543
250	0x3ed73b89	0.4203761
251	0x3eff8fc2	0.49914366
252	0x3e911c29	0.28341797
253	0xbe5bc57c	-0.21462053
254	0x3dd6ef1b	0.104948245
255	0xbdb52b4c	-0.08846149

linear1.bias f4 [256]
0	0xbec48ede	-0.3839025
1	0x3e1c7905	0.1528054
2	0xbd056f5a	-0.032576896
3	0xbe7324df	-0.23744534
4	0xbe96583d	-0.29364195
5	0xbce5def5	-0.028060416
6	0xbe52ebe4	-0.20597798
7	0x3c185398	0.009297274
8	0x3efc06df	0.49223992
9	0xbe357f0b	-0.17724244
10	0x3eb5df8a	0.3552211
11	0xbc2df0b8	-0.010616474
12	0xbe937110	-0.28797197
13	0xbde262d4	-0.11054006
14	0xbc18fee8	-0.009338118
15	0xbe718980	-0.23587608
16	0xbe6eebee	-0.23332188
17	0x3dcb79b7	0.09935325
18	0xbe3e0abd	-0.18558784
19	0x3eef15b8	0.46696258
20	0x3db14272	0.086552516
21	0x3ec9abab	0.39388785
22	0xbed3c54b	-0.4136146
23	0xbd710b8d	-0.058848906
24	0xbe548493	-0.20753698
25	0x3ea48408	0.32131982
26	0xbe6b497f	-0.22977255
27	0xbe13a279	-0.14417447
28	0xbe07514b	-0.13214605
29	0xbe8f21c3	-0.27955446
30	0xbe87beab	-0.26512656
31	0x3db81e29	0.089901276
32	0xbe653b61	-0.22385933
33	0xbe91726f	-0.28407618
34	0x3d3ab2e2	0.045580752
35	0xbedcd1f4	-0.43128932
36	0x3e1c92ca	0.1529037
37	0xbe6973f1	-0.22798134
38	0x3cbdb2c5	0.023156533
39	0xbe7fdba0	-0.24986124
40	0x3d9c9343	0.076452754
41	0xbeb9f6c8	-0.36321092
42	0x3dbfee0a	0.09371574
43	0xbea28e70	-0.31749296
44	0x3e15d65c	0.14632553
45	0x3db68c4b	0.089134775
46	0xbe22dba3	-0.15904097
47	0x3e951789	0.29119518
48	0xbe408724	-0.18801552
49	0xbe0e0d3b	-0.13872235
50	0xbe69f2d9	-0.22846545
51	0xbe9685de	-0.29399008
52	0x3e21bb28	0.1579405
53	0xbe45201b	-0.19250529
54	0xbd127e43	-0.035764944
55	0xbdd70d32	-0.10500564
56	0xbeb3493e	-0.35016817
57	0xbee5d622	-0.44889933
58	0x3e9ba1fc	0.30397022
59	0xbe0e04d5	-0.13869031
60	0xbbccfa4d	-0.006255424
61	0xbe9f54ab	-0.31119284
62	0xbe14057a	-0.14455214
63	0xbe1ad16c	-0.1511895
64	0xbe8bf694	-0.27336562
65	0xbde570e9	-0.112031765
66	0xbd85210e	-0.06500445
67	0xbe2db94d	-0.16965218
68	0xbe614e47	-0.22002517
69	0xbee8c3c9	-0.45461872
70	0xbd2bdea9	-0.041960392
71	0xbd95833e	-0.07300423
72	0x3e044629	0.12917389
73	0xbd22d5b5	-0.03975459
74	0xbdd0af0f	-0.1018964
75	0xbd2d2c48	-0.042278558
76	0x3b055ba9	0.0020348823
77	0xbe547539	-0.20747842
78	0x3e1f16dc	0.15536064
79	0x3e841fe9	0.25805596
80	0xbe364a96	-0.1780189
81	0xbe9a2ef2	-0.3011394
82	0xbdd8f065	-0.105927266
83	0xbe0d30d6	-0.1378816
84	0xbe1b050a	-0.15138641
85	0xbc9295c5	-0.017893681
86	0x3d8eb8ae	0.069688186
87	0xbe8b7914	-0.27240813
88	0xbe4a882c	-0.19778508
89	0x3f4dbd64	0.8036711
90	0xbdcadd69	-0.09905512
91	0x3e621423	0.22077994
92	0xbe5d22c2	-0.2159529
93	0x3e7b6caf	0.24553178
94	0x3e032c51	0.12809874
95	0x3e263b3c	0.16233534
96	0xbda8724f	-0.08224928
97	0x3e3e5647	0.185876
98	0x3ddbdb99	0.10735244
99	0xbe83919c	-0.2569703
100	0xbe8593b5	-0.26089254
101	0x3e01efb4	0.12689096
102	0xbd922251	-0.071354516
103	0x3f5d349c	0.864084
104	0x3ebf9cfc	0.37424457
105	0xbeb2d29f	-0.34926316
106	0xbe8fe2a5	-0.28102604
107	0xbe906704	-0.28203595
108	0x3e8ed01a	0.27893144
109	0x3ee22a89	0.44173077
110	0xbe39cf84	-0.18145567
111	0xbe25cac2	-0.16190627
112	0x3e995374	0.29946482
113	0x3f2dcead	0.6789349
114	0xbe8f76c9	-0.28020313
115	0xbebbf3ca	-0.36709434
116	0xbdddadbc	-0.10824153
117	0xbe324a69	-0.17411198
118	0x3e779593	0.24178152
119	0xbe8de80a	-0.27716094
120	0xbe6bd0ed	-0.23028918
121	0xbe8c4ce6	-0.2740242
122	0xbe04ddad	-0.12975188
123	0xbe62042f	-0.22071908
124	0xbe7713c9	-0.24128641
125	0xbdcd0b38	-0.100119054
126	0xbe40535d	-0.187818
127	0x3dbf8ced	0.09353051
128	0xbda93b5e	-0.082632765
129	0xbe2bc4fa	-0.1677436
130	0x3f0dae72	0.5534431
131	0xbdd4fc3a	-0.10399671
132	0xbded775c	-0.115950316
133	0xbe69cce5	-0.22832067
134	0x3f4a0616	0.78915536
135	0xbe08e6c0	-0.13369274
136	0xbe51fc1d	-0.2050633
137	0xbec85d18	-0.39133525
138	0x3eaaf442	0.3338948
139	0xbde9f595	-0.11423794
140	0xbdd19cea	-0.10235007
141	0xbddd4f80	-0.10806179
142	0x3eb58ef1	0.35460618
143	0x3f1675dc	0.5877359
144	0xbf01bd01	-0.5067902
145	0xbea7a8ec	-0.32746065
146	0xbe0b5404	-0.13606268
147	0xbe254a81	-0.16141702
148	0x3dd2dc2c	0.10295901
149	0xbe774e9f	-0.24151085
150	0xbee58e44	-0.44835103
151	0x3db32adb	0.087484084
152	0xbdc95d46	-0.098322436
153	0xbe58eead	-0.21184798
154	0x3ecbaacb	0.39778742
155	0xbb1a6649	-0.0023559502
156	0x3e130a58	0.14359415
157	0xbdba6647	-0.09101539
158	0xbe2c827e	-0.16846654
159	0xbeac47cc	-0.33648527
160	0xbec714b7	-0.38882992
161	0xbea77002	-0.32702643
162	0xbe6fe739	-0.23428048
163	0x3e80a0c4	0.25122654
164	0xbe5a1a67	-0.21299134
165	0xbd98db3b	-0.0746369
166	0xbe845969	-0.25849465
167	0xbd0399a5	-0.03212895
168	0x3e87253b	0.26395592
169	0xbd090cff	-0.03345966
170	0x3d0fb966	0.03508892
171	0x3da5e819	0.0810091
172	0xbcf5f308	-0.030023113
173	0x3e3e0fc9	0.18560709
174	0xbf00178e	-0.5003594
175	0xbe984721	-0.29741767
176	0x3eec393f	0.46137425
177	0xb829c8f4	-4.0479892e-05
178	0xbe81c4c5	-0.25345436
179	0xbe420031	-0.18945386
180	0xbe38d193	-0.18048696
181	0x3e82d648	0.2555411
182	0xbe7bb4d7	-0.24580704
183	0xbe917717	-0.2841117
184	0xbe75d6bb	-0.24007694
185	0xbe50369c	-0.20333332
186	0x3d28a2fe	0.041171066
187	0xbe91cdc9	-0.28477314
188	0x3e04743e	0.12934968
189	0xbe9f45f8	-0.3110807
190	0xbed060db	-0.40698895
191	0xbe07aa43	-0.13248543
192	0xbe8526ff	-0.26006314
193	0xbdf97519	-0.12180538
194	0x3c6a7468	0.01430998
195	0x3d082e3f	0.03324723
196	0xbe14706c	-0.1449601
197	0xbe2cfdb5	-0.16893657
198	0xbe45f025	-0.19329889
199	0xbe369382	-0.17829707
200	0xbea00644	-0.3125478
201	0xbdecc9f7	-0.11561959
202	0xbe58ed30	-0.2118423
203	0x3eabaf34	0.33532107
204	0x3e008d47	0.12553893
205	0xbe871a5c	-0.26387298
206	0xbe96a066	-0.2941925
207	0xbe60679b	-0.21914522
208	0xbe82af9b	-0.255246
209	0xbd8a73c5	-0.067603625
210	0xbe0aafcf	-0.13543628
211	0xbe04f043	-0.12982278
212	0x3d62bc81	0.055355553
213	0x3c45cbf7	0.012072555
214	0xbea66aba	-0.325033
215	0xbe5238c8	-0.20529473
216	0x3de964d9	0.11396188
217	0xbe191487	-0.14949237
218	0xbe5cf1a0	-0.21576548
219	0xbcf6e41b	-0.030138066
220	0xbd8db10f	-0.06918537
221	0x3e6364d0	0.22206426
222	0xbe8b53e5	-0.27212444
223	0xbe0d3d89	-0.13793005
224	0x3cc0398a	0.023464937
225	0xbef4de6e	-0.4782595
226	0x3d756e30	0.059919536
227	0xbdf75644	-0.12077001
228	0x3e10e9c4	0.14151675
229	0x3c1f767b	0.009732838
230	0xbec25366	-0.37954253
231	0x3cb28e1b	0.021796277
232	0xbec94906	-0.39313525
233	0xbd65320e	-0.05595594
234	0xbe621454	-0.22078067
235	0xbe114a1d	-0.14188428
236	0x3ed68aa3	0.41902646
237	0xbe12bc76	-0.14329705
238	0xbeaeff01	-0.34178928
239	0x3e5bc968	0.21463549
240	0xbd407736	-0.04698869
241	0xbe9facc3	-0.31186494
242	0x3e90ef33	0.28307495
243	0xbe19fc42	-0.15037635
244	0xbc76265f	-0.015023797
245	0x3ebdb1b9	0.37049654
246	0x3d94d38e	0.07266913
247	0x3de2af86	0.11068635
248	0xbdea585b	-0.11442634
249	0x3dacab6b	0.08431133
250	0x3e6dcb92	0.23222187
251	0xbd5ad93a	-0.05342982
252	0xbe9e100f	-0.30871627
253	0x3d8911dd	0.0669286
254	0x3eb630d3	0.35584125
255	0xbdad0e9c	-0.08450052

linear2.weight f4 [3, 256]
0	0xbd9e4cd8	-0.077295005
1	0xbe6eda4a	-0.23325458
2	0x3d24721c	0.040147886
3	0xbc2bae90	-0.010478631
4	0xbe854a23	-0.26033124
5	0xbeac3f11	-0.33641866
6	0xbe1dc776	-0.1540812
7	0xbe8d1068	-0.2755158
8	0x3ea3429d	0.3188676
9	0xbf3a5d25	-0.7279838
10	0x3e976dc9	0.29575947
11	0xbf31ad2a	-0.6940485
12	0x3dc00f0a	0.093778685
13	0xbd802a78	-0.062581
14	0x3bbf7511	0.005842813
15	0xbd19a6f7	-0.037512746
16	0xbe35f2b0	-0.17768359
17	0x3f040b4c	0.5157974
18	0x3e7dd8ea	0.24789777
19	0x3e8f18c8	0.27948594
20	0xbc27f356	-0.010250887
21	0x3d6ccaa4	0.05781044
22	0xbe952247	-0.29127714
23	0xbebe1083	-0.37121972
24	0xbdfb1d88	-0.12261492
25	0x3ee5ba8c	0.44868886
26	0xbea35d92	-0.31907326
27	0xbf176acc	-0.59147334
28	0xba0a2d04	-0.000527099
29	0xbde6cd9c	-0.112696856
30	0xbe910fd3	-0.28332385
31	0x3e43814f	0.19092296
32	0xb924f200	-0.00015730411
33	0x3e46c742	0.19411948
34	0xbe35dda4	-0.1776033
35	0xbeac29d9	-0.33625677
36	0x3ecd787a	0.4013098
37	0xbe2f1bcf	-0.17100452
38	0x3e7d4230	0.2473228
39	0x3c6fdce7	0.01464007
40	0x3e80aeb2	0.25133282
41	0xbebf65f9	-0.37382486
42	0x3e7f9699	0.24959792
43	0xbe8bc20f	-0.27296492
44	0x3e0f0c69	0.13969578
45	0x3eea6884	0.45782864
46	0xbceec384	-0.029145963
47	0x3e48fe34	0.19628221
48	0xbeb27471	-0.34854463
49	0x3b768e9f	0.003762163
50	0xbda9a254	-0.08282915
51	0xbe537de1	-0.20653488
52	0x3dc126b4	0.0943121
53	0xbd4924b9	-0.049107287
54	0xbb4f1f0c	-0.0031604199
55	0x3cf14ca2	0.029455487
56	0xbc8476b0	-0.016169876
57	0xbe76c650	-0.24099088
58	0x3e844c80	0.25839615
59	0xbf0c023c	-0.5469091
60	0xbdad66d5	-0.08466879
61	0xbd3bce0b	-0.045850795
62	0xbe55ae57	-0.20867287
63	0xbd9dd5c3	-0.077067874
64	0xbe0ae489	-0.13563742
65	0xbeb6b139	-0.35682085
66	0xbc5f1b24	-0.013617311
67	0xbdbfb55f	-0.09360766
68	0xbe0f406d	-0.1398942
69	0xbda0037a	-0.07813163
70	0x3ce29268	0.027657703
71	0xbcbc3032	-0.0229722
72	0xbcaed857	-0.021343393
73	0xbd78ae34	-0.060713008
74	0xbd33fe79	-0.043943856
75	0xbe828b0f	-0.25496718
76	0x3e0c3302	0.13691333
77	0x3cc2df13	0.02378801
78	0x3e14455d	0.14479585
79	0x3dc7fe97	0.09765356
80	0x3e306fb6	0.17230114
81	0xbd2ae869	-0.04172555
82	0xbec9fb0f	-0.39449355
83	0xbdac417c	-0.08410928
84	0xbe5d50cc	-0.21612853
85	0xbe27bc29	-0.16380371
86	0x3cd8eb0c	0.026479267
87	0xbd01a0dd	-0.03164755
88	0xbdd23333	-0.10263672
89	0x3ecdefd6	0.40222043
90	0xbed104b7	-0.4082391
91	0x3e683c40	0.22679234
92	0x3e84250f	0.25809523
93	0x3e8ce095	0.27515092
94	0xbf570a6a	-0.84000266
95	0x3ed13b7a	0.4086569
96	0x3e29eeff	0.16595076
97	0x3d95cc8a	0.07314403
98	0xbdee4f3d	-0.11636207
99	0xbe265f0f	-0.162472
100	0xbd2150c4	-0.039383665
101	0x3ee68a78	0.45027518
102	0xbd9ed80d	-0.07756052
103	0x3ed22055	0.41040292
104	0x3f14798d	0.5799797
105	0xbe049ddd	-0.12950845
106	0x3b8f5d87	0.004375163
107	0xbcfa2271	-0.030534001
108	0x3eb4d8a9	0.3532155
109	0x3eb61cad	0.35568753
110	0xbccebde9	-0.02523704
111	0xbe678131	-0.22607876
112	0x3ea710e0	0.32630062
113	0x3e2cadab	0.16863124
114	0xbcb19744	-0.021678574
115	0xbe06e61e	-0.1317372
116	0x3e0d0abd	0.13773628
117	0xbeac8d3b	-0.337015
118	0x3c122f0c	0.00892235
119	0xbdb4ce64	-0.088284284
120	0xbc5fa42e	-0.013649983
121	0xbd7b8a64	-0.061411276
122	0xbef23fc9	-0.4731429
123	0x3cd2ea2e	0.025746431
124	0xbe3014d1	-0.17195441
125	0xbe0c69fc	-0.13712305
126	0xbda279f6	-0.079334185
127	0x3dd1a7fa	0.10237117
128	0xbeabf33f	-0.3358402
129	0xbc5c746a	-0.01345549
130	0x3eff87e0	0.49908352
131	0x3e9f2ba6	0.3108799
132	0xbc2c6984	-0.010523204
133	0xbda83726	-0.08213644
134	0x3e072158	0.13196313
135	0xbe0eadfb	-0.13933556
136	0xbea6c8e9	-0.32575157
137	0xbe9d4ffa	-0.3072508
138	0x3e7d74e3	0.2475162
139	0xbd567932	-0.052361675
140	0x3ec54b06	0.385338
141	0x3e70f473	0.2353075
142	0x3e072e94	0.13201362
143	0x3f032a08	0.5123601
144	0xbe5b4dbf	-0.21416377
145	0xbe135e16	-0.1439136
146	0xbce2b2ce	-0.027673151
147	0xbec357dd	-0.38152972
148	0xbe8498b5	-0.25897756
149	0xbcf3c2be	-0.029755946
150	0x3dee4d5a	0.116358474
151	0x3d50e69d	0.05100118
152	0xbe65a933	-0.22427826
153	0xbd224d3f	-0.03962445
154	0x3ec00d53	0.37510166
155	0x3d8ff06c	0.07028279
156	0x3eca9a26	0.3957073
157	0xbd605442	-0.054767855
158	0xbe9cb673	-0.30607948
159	0x3c3dcdd9	0.011584722
160	0xbe2d86e0	-0.16945982
161	0x3c6a6e08	0.01430846
162	0xbe227f93	-0.15868978
163	0x3e1904e0	0.14943266
164	0xbe8ee071	-0.2790561
165	0xbd78ca8f	-0.06074005
166	0xbe11bf16	-0.1423305
167	0x3e40daa5	0.18833406
168	0x3ebc14d3	0.36734638
169	0x3e983b43	0.29732713
170	0x3eb3967a	0.35075742
171	0x3e16ff96	0.14745936
172	0xbe06bd90	-0.1315825
173	0x3eff34f1	0.4984508
174	0xbe305e53	-0.17223482
175	0xbd50cad2	-0.050974675
176	0x3edf42b6	0.43605584
177	0xbea6d0a8	-0.32581067
178	0x3e3e3764	0.18575817
179	0xbe80e95b	-0.25178036
180	0xbb4a7575	-0.0030892764
181	0x3e3ac495	0.18239053
182	0x3a71b953	0.0009221036
183	0xbdd06ba6	-0.10176782
184	0xbf023a45	-0.5087016
185	0xbecf7f05	-0.40526596
186	0xbd9808ed	-0.074235775
187	0x3ad9f1f5	0.0016627895
188	0x3e81e767	0.25371858
189	0xbd3946b0	-0.04523343
190	0x3d66c8eb	0.056343954
191	0xbe90363a	-0.28166372
192	0xbe9ff5ee	-0.31242317
193	0x3d8793db	0.06619998
194	0xbefa5f2f	-0.48900744
195	0x3ea428d0	0.32062387
196	0xbf16b70b	-0.5887305
197	0x3e59fca7	0.21287785
198	0xbd4ae135	-0.04953118
199	0xbf14ba78	-0.5809703
200	0x3c7285ec	0.014802437
201	0xbf3650b9	-0.71216923
202	0xbd258c0a	-0.040416755
203	0x3ef78563	0.48343953
204	0xbc8f0511	-0.01745847
205	0xbdd539b8	-0.104113996
206	0x3d5c3e7e	0.053770535
207	0x3d10b3ca	0.03532771
208	0xbcb80aa8	-0.022466019
209	0xbe7ee236	-0.2489098
210	0x3e61b43f	0.22041415
211	0xbe612e5c	-0.21990341
212	0x3e3821ce	0.17981645
213	0xbdcd088c	-0.10011396
214	0x3cf40b74	0.029790618
215	0x3d1c82b4	0.038210586
216	0x3e910081	0.28320697
217	0x3eb29d97	0.34885857
218	0xbe8b9ef5	-0.27269712
219	0x3e970d54	0.29502356
220	0xbe308f93	-0.17242269
221	0x3e8822ed	0.26589146
222	0xbde12868	-0.10994035
223	0xbf1443c5	-0.5791591
224	0xbeec8639	-0.46196154
225	0xbdfab737	-0.12241977
226	0xbda03b37	-0.07823794
227	0xbdd019f1	-0.10161198
228	0xbd5a4799	-0.053290937
229	0xbea7ac27	-0.3274853
230	0xbc165efc	-0.0091779195
231	0xbc40a0fd	-0.011757133
232	0xbede173f	-0.4337711
233	0xbdc1a3ee	-0.09455095
234	0xbcb5f551	-0.022211703
235	0xbe2b7599	-0.16744079
236	0x3efa7c43	0.4892293
237	0x3bb28080	0.0054474473
238	0xbda1a820	-0.078933954
239	0x3e8bf1d4	0.27332938
240	0x3e67a0f8	0.22619998
241	0x3d8e9224	0.06961468
242	0x3e81cec3	0.2535306
243	0x3e1a6305	0.15076835
244	0xbc046abd	-0.008082089
245	0x3eda56be	0.42644304
246	0x3e3da856	0.18521246
247	0x3edccd6d	0.43125477
248	0xbee1be84	-0.44090664
249	0x3b30571a	0.0026907385
250	0x3e2abef6	0.16674408
251	0xbe4bd3f9	-0.1990508
252	0xbd9465d3	-0.07245984
253	0xbe7c7a30	-0.24655986
254	0x3d3122c8	0.04324606
255	0xbee216ba	-0.44157964

linear2.bias f4 [3]
0	0x3eb0d486	0.34537143
1	0x3c42ca9f	0.011889129
2	0x3d7ade9e	0.06124746
