Snake_game/model/model_100.pth (torch, 16787 bytes, 4 tensors)

linear1.weight f4 [256, 11]
000000 7c c1 4d 3e 0f 17 21 be b2 1c 00 bf fc 5c e4 be
       0.2009334 -0.15731452 -0.50043786 -0.4460219
000010 f3 dc 46 3c 93 1b 42 3e 9f ff c4 bd 24 e3 d6 3e
       0.012137639 0.18955831 -0.09619068 0.4197017
000020 48 d4 47 be e5 7e c6 bd 21 a7 19 3e a4 f6 66 3e
       -0.19514573 -0.09692172 0.15005161 0.22555023
000030 b2 75 e4 3d be cb f7 3e 2d b6 b2 bd cd 03 c1 bd
       0.11155261 0.4839763 -0.087261535 -0.09424553
000040 2b a0 01 3e a8 24 62 be a5 66 b2 3e a8 1c ee 3e
       0.12658755 -0.22084296 0.34843937 0.46506238
000050 40 f5 3f 3d 8c 65 3d 3e c6 1c eb be b8 e3 f6 3d
       0.046864748 0.18495768 -0.4592039 0.12055153
000060 b7 5f b0 3e 42 4d 67 bc bf 30 f6 bd 23 de 3e 3c
       0.34448025 -0.014117541 -0.12021016 0.011649641
000070 a3 08 3c 3e 47 fb 62 be 48 ec 88 3d 9a 47 df bc
       0.1836267 -0.22166167 0.06685692 -0.027255822
000080 5b 5a 66 bd f0 6c 8b bc fd 12 bf be e8 bb dd bd
       -0.056238513 -0.017019719 -0.37319174 -0.10826856
000090 3e d5 89 3e 40 e0 e6 bd ce 6e 52 be 92 41 70 be
       0.26920503 -0.11273241 -0.20550081 -0.23462513
0000a0 a8 15 ce be 29 f7 c5 bd 4f 8e b3 3d 7a be 88 be
       -0.40250897 -0.09666283 0.087673776 -0.26707822
0000b0 db 1b 1b be 22 a0 5c be 8b 01 0d 3f dc a4 ff be
       -0.15147345 -0.21545461 0.5508048 -0.49930465
0000c0 cb 42 10 3e 98 75 25 3e b5 6a 6a be 34 f1 d9 3e
       0.1408798 0.1615814 -0.22892268 0.42566836
0000d0 f4 01 1c be f8 ed 42 be bf 46 87 3e 4a 6e b9 be
       -0.1523512 -0.1903609 0.26421162 -0.36216956
0000e0 ac 31 b5 3e b0 56 2a 3d 7d de cc be 8b 6b 3d 3e
       0.3538946 0.041586578 -0.40013495 0.18498056
0000f0 bd 4b 2a 3e ff ca cf bd e8 5c c5 3e 96 96 63 be
       0.16630454 -0.1014614 0.38547444 -0.22225413
000100 02 72 61 be 4b b4 04 be 14 b2 ad 3e 31 3f 5d be
       -0.22016147 -0.12959401 0.33924925 -0.21606137
000110 28 11 4a 3e 39 25 22 3e 93 a9 0d be 51 73 7f be
       0.19733107 0.15834512 -0.13834219 -0.24946333
000120 39 b4 71 3d b4 d4 5b be c1 d3 03 3d 25 c9 2e 3e
       0.059009764 -0.21467859 0.032184366 0.17068918
000130 c0 96 60 be 25 a6 fa be 4c 56 03 3f 5d c4 12 bd
       -0.21932507 -0.48954883 0.51303554 -0.035831798
000140 96 c4 b7 3c 13 7e c0 bd 8e 7f 04 3d f6 8d 07 3d
       0.022432607 -0.09399047 0.032348208 0.03309437
000150 64 10 23 be 91 77 89 3d bc 7c ab bd a7 c2 db bd
       -0.15924221 0.067122586 -0.083734006 -0.10730486
000160 ee c3 ce be 3a e0 6c be b7 3a 19 be 7a 50 03 3f
       -0.40383857 -0.2313241 -0.14963804 0.5129467
000170 aa e2 c1 3e c9 fb b3 3e 4b 06 c0 bc 56 e8 0d bd
       0.37868243 0.35153034 -0.0234405 -0.0346454
000180 ac 74 1b be f0 ae 1c 3e e4 8b 09 bf 87 4b 7f be
       -0.15181226 0.15301108 -0.5372908 -0.24931155
000190 50 8e da 3d f4 27 cb 3d c7 3d 41 be 82 b8 27 be
       0.10671675 0.0991973 -0.18871222 -0.16378978
0001a0 52 ec 1d 3d fa 5d 97 be fd a6 a3 3d 88 c7 02 bd
       0.03855545 -0.29563886 0.07990835 -0.03192857
0001b0 ec 1f 52 be 4c e5 a1 be 88 52 a5 bd 1a 22 8c 3e
       -0.2051999 -0.31620252 -0.08072382 0.27369767
0001c0 48 3a b2 bd 19 09 81 be 85 be da be c1 17 88 b9
       -0.087025225 -0.25202253 -0.4272348 -0.0002595764
0001d0 be 98 de 3d c9 0b f6 3d 1f ff dd 3e e8 f0 ab be
       0.10868977 0.120139666 0.43358704 -0.33582234
0001e0 98 94 51 be 30 ed c4 be a1 76 26 3e cb 0b fe 3e
       -0.2046684 -0.3846221 0.16256191 0.49618372
0001f0 ce 05 ec 3d dd 95 7c bd 61 f2 2d 3e c9 a2 0c 3e
       0.11524545 -0.06166636 0.16986991 0.13733973
000200 6e 35 80 3d d6 67 c4 3d f0 14 23 3d b5 dd 89 bc
       0.06260191 0.09590118 0.03981489 -0.016829351
000210 93 66 06 bf 8b 0a e3 3e 20 09 7d 3e 9a 98 3e be
       -0.52500266 0.4434398 0.24710512 -0.186129
000220 cf 00 93 3d bb 01 8d bc 2b 68 c7 bc 7b a8 c4 bc
       0.071778886 -0.01721274 -0.024341663 -0.024006119
000230 8f 5b ad bd 3e 29 25 3e cb fa a4 bd 26 3e dd be
       -0.08464729 0.16129014 -0.080556475 -0.43211478
000240 2e 0a c4 3d 0d f8 4e bd 0f af 54 be 1f c9 47 3e
       0.09572254 -0.05052953 -0.20769905 0.19510315
000250 a3 c6 46 3d 43 c3 59 3e 1f 29 07 bf 24 b4 0a be
       0.04852928 0.21265893 -0.5279712 -0.1354528
000260 d8 e1 f6 3d a4 3c ba bd 40 4a 07 3f f4 eb 97 3c
       0.12054795 -0.090935975 0.5284767 0.018545128
000270 46 5a 00 3e 50 a6 0c be 44 05 b5 3e 17 46 63 be
       0.12534437 -0.13735318 0.3535558 -0.22194706
000280 f4 e6 91 3e c9 bd d9 be 1f ea 39 be c4 63 83 3e
       0.28496516 -0.42527607 -0.18155716 0.25662053
000290 8b c9 03 bf 30 cb 8f be bf b1 89 3d 53 cd c8 3d
       -0.51479405 -0.28084707 0.067233555 0.098047875
0002a0 75 02 3c be e7 af 20 be a7 0d 23 be ca 93 d9 3e
       -0.18360312 -0.15692101 -0.15923177 0.42495567
0002b0 ac e9 a0 be f5 33 cc be a8 f4 80 be 43 19 87 3e
       -0.31428277 -0.3988339 -0.25186658 0.2638646
0002c0 68 ca 22 bf 15 6b 38 bd c6 49 07 bd ec 84 7d 3e
       -0.635901 -0.045023996 -0.03302934 0.24757737
0002d0 4b 88 43 3e 68 65 b5 be 85 f0 84 be 40 0d 79 3e
       0.1909496 -0.3542893 -0.25964752 0.2432146
0002e0 1d 6d c4 3e f3 cf 73 be e0 91 46 be f0 2c 7e bd
       0.38364497 -0.23809795 -0.19391584 -0.062054574
0002f0 ab 95 3c be 1e e3 84 be f6 78 2f be 8f e7 64 be
       -0.18416469 -0.25954527 -0.17135987 -0.22353958
000300 46 10 4c be a8 3d 85 be 66 bb 8e be df ae 28 3d
       -0.19928083 -0.26023602 -0.2787735 0.041182395
000310 21 4c 5c 3e f8 76 36 3d 8b b2 37 bd bb 13 c7 be
       0.21513416 0.04454705 -0.044848006 -0.3888224
000320 1d 16 96 3e c2 80 6d be f3 60 0e be c3 5c a4 3e
       0.29313746 -0.23193648 -0.1390417 0.32102022
000330 8f f3 95 be e0 b6 f3 be b2 fb 48 3e 4d 44 52 be
       -0.29287383 -0.4760046 0.19627264 -0.20533867
000340 4b 5a ce bc 05 5c c7 3e e9 cc e1 3e d3 03 b4 bd
       -0.02518954 0.38937393 0.44101647 -0.08789792
000350 af 4d 80 be 67 e6 5e 3e 92 f5 df 3d e1 da 8f be
       -0.25059268 0.21767579 0.10935511 -0.2809668
000360 0f df 46 3e d2 ce 9b be cb 2a 8e bd d2 06 3f 3d
       0.19421028 -0.3043123 -0.06941756 0.046637364
000370 2c d2 c8 3e e8 39 e6 bd ab 99 d3 be a8 60 c8 3d
       0.39222848 -0.112415135 -0.41328177 0.09784061
000380 d2 90 1a 3e 85 95 89 be ca 60 d7 bd 58 41 c4 be
       0.15094307 -0.26871887 -0.10516508 -0.38331103
000390 c7 4a b6 be db bb 70 3e ad ec 6f 3e 6c b6 b0 3d
       -0.35603926 0.23509161 0.23430128 0.08628544
0003a0 80 89 bb bd d4 ae 9e bd 88 27 21 3d b0 1b f9 bc
       -0.091570854 -0.077481896 0.03934434 -0.03040871
0003b0 18 f8 00 3d fc 0e cd 3d b0 ae 6c 3d cd 6c 36 be
       0.0314866 0.10012624 0.057783782 -0.17814942
0003c0 00 b3 83 3c ab eb 96 be 43 4f 81 be 25 25 e8 be
       0.016076565 -0.29476675 -0.25255784 -0.4534084
0003d0 fd ec ea 3e 4f e3 9c bc 14 6c 9e 3e c8 57 44 3e
       0.45883933 -0.019151358 0.30941832 0.19174111
0003e0 1e 76 0f bd 20 06 c4 be b9 72 2a be e3 ff ae 3e
       -0.035024755 -0.38285923 -0.16645326 0.341796
0003f0 e8 89 cd 3e 1b 42 61 3d 35 63 9e 3d f2 a6 01 3e
       0.40144277 0.054994684 0.07733766 0.12661341

linear1.bias f4 [256]
000000 0d f2 a9 bc 7c 86 3c be 35 0f 02 3f 7a 96 9c 3d
       -0.020745302 -0.18410677 0.50804454 0.076458886
000010 80 f2 28 3d b9 d7 29 3d 1a 14 a8 bd ea 51 dd 3e
       0.04124689 0.041465495 -0.08206959 0.43226558
000020 91 de d4 3e aa e3 9a 3b 4c 2a 84 3d 5e 1e de bc
       0.41576055 0.0047268467 0.0645338 -0.02711409
000030 73 49 72 3e b6 d2 01 3f 16 c2 1a be 2f ae 52 be
       0.23660831 0.50712144 -0.151131 -0.20574258
000040 43 40 54 bd 83 5b cf bd f8 15 29 bd cb f5 ce 3c
       -0.051819097 -0.10124876 -0.041280717 0.025263688
000050 dd 21 8e 3e 75 9b 94 be a6 95 51 3e 38 96 07 bd
       0.2776021 -0.29024854 0.20467243 -0.033102244
000060 c0 22 b5 3e 4f 0c b8 3e b2 cb 22 3e 42 24 2d be
       0.35378075 0.3594689 0.15898016 -0.16908363
000070 1e e9 d0 3d d1 a4 74 be bf 00 88 bd 58 4e 2c bd
       0.102007136 -0.23890997 -0.06640767 -0.042066902
000080 8a fc 07 3d b7 77 8e be 3c 60 6d 3e 69 1a 41 be
       0.033199824 -0.2782571 0.23181242 -0.18857731
000090 86 4b 5f 3e 48 ea 9f be 4f d6 42 3e 06 36 e3 bd
       0.21806154 -0.3123343 0.19027065 -0.110942885
0000a0 46 b3 d7 3c 6b 38 52 be e0 84 46 be 0d af a6 3c
       0.026330601 -0.20529334 -0.19386625 0.020347143
0000b0 32 04 84 bd ed b3 0f be 5c b2 4c be b3 cd f8 39
       -0.06446113 -0.1403348 -0.19989914 0.00047455504
0000c0 00 52 01 3a 8a b1 58 be 97 cf a8 bc 4e 57 e8 3d
       0.00049331784 -0.21161476 -0.020606799 0.11344777
0000d0 52 12 41 3e dd 58 85 be 60 11 44 be 5a 88 38 be
       0.18854645 -0.2604436 -0.19147253 -0.18020764
0000e0 89 23 22 be 6f 8d 88 3e e2 95 26 3d f9 92 07 be
       -0.15833868 0.26670405 0.040670283 -0.1323966
0000f0 63 61 91 3d 24 50 61 b8 92 9a 58 3e b7 75 69 bd
       0.07098653 -5.3718817e-05 0.21152714 -0.056997027
000100 64 38 72 bd 11 51 21 be e9 be 96 3c f0 83 7e be
       -0.05913581 -0.1575358 0.01840158 -0.24855018
000110 3a 5a bc be 92 12 c0 bd 10 6d 34 3e fb 7b 08 bc
       -0.36787587 -0.09378542 0.17619729 -0.0083303405
000120 62 d4 0d 3d 00 74 fb bc a8 e6 d1 bd 51 4e 14 3e
       0.034626372 -0.030694962 -0.10249072 0.14483
000130 17 16 7c 3e 03 3c f9 3d 88 39 ae 3e 91 21 47 be
       0.24617802 0.121696495 0.34028268 -0.19446398
000140 62 7d 99 3d be 67 df 3d cb d8 05 be 39 74 e2 bd
       0.07494618 0.10908459 -0.13070981 -0.11057324
000150 f2 32 ec 3e 81 11 74 3e 7f e8 75 bd 17 9d 80 be
       0.46132618 0.23834802 -0.06003618 -0.2511985
000160 ee 8e 79 3e da 52 ca bc 83 3a 3f bd 66 bc 89 be
       0.2437093 -0.02469771 -0.04668666 -0.2690155
000170 f5 f7 ce 3d aa d8 41 be 86 54 50 3e b1 7f 9a bd
       0.10105888 -0.18930307 0.20344743 -0.075438865
000180 a1 f8 f0 bd f0 25 63 3d b1 35 e8 be 15 9d 80 be
       -0.11766172 0.055456102 -0.45353463 -0.25119844
000190 32 b1 e5 3d 23 0b 5a 3e 59 ea 1e 3e 34 e4 6a be
       0.11215438 0.21293311 0.15519084 -0.22938615
0001a0 5f 46 4e 3e 9c d6 89 be f1 8c 0a be 6f 21 73 bc
       0.20144032 -0.26921546 -0.13530327 -0.014839514
0001b0 16 c9 f0 3d 81 f6 99 be fd df 0a be b9 e5 e6 bd
       0.11757104 -0.3007088 -0.13562007 -0.11274285
0001c0 61 9d da 3e 7c 23 69 be b5 19 5a bd 99 91 f1 3d
       0.42698196 -0.22767442 -0.053247172 0.11795349
0001d0 39 42 8a bd 0f 68 08 be 41 79 e5 3e e1 76 8f bd
       -0.06750912 -0.13320945 0.44819072 -0.07005096
0001e0 91 e6 5b be c5 f5 35 be 63 ea 8c be e4 6b 5f 3e
       -0.21474673 -0.17769535 -0.27522573 0.21818501
0001f0 6c e5 8d be 78 7f 0d be 75 8d d3 3e 9a ae 5f 3e
       -0.27714097 -0.13818157 0.4131886 0.21843949
000200 d7 4c 90 bd 82 c4 fb bc 5c c0 9e be a0 50 2b be
       -0.07045906 -0.03073335 -0.31006134 -0.16729975
000210 bc 60 89 3c 6e 0f de bd 79 c7 a0 3d 77 38 82 be
       0.01676976 -0.10842787 0.078505464 -0.25433704
000220 1e 0f c3 bd f0 cb a6 b7 e0 a0 b2 bd 98 ad 2c bd
       -0.09524368 -1.9883708e-05 -0.08722091 -0.04215774
000230 6d 1d 74 be 3f 95 88 3e 3f 2a 83 be f1 cf a2 bd
       -0.2383935 0.26676366 -0.2561817 -0.07949818
000240 20 01 dc be 29 a5 bb bd b5 cf 98 bc 6b 23 79 bd
       -0.42969608 -0.09162361 -0.01865373 -0.060824793
000250 0a 45 10 3f fc 74 6f 3e 67 06 4c bb e2 33 60 be
       0.56355345 0.2338447 -0.0031131746 -0.21894792
000260 4e 9b 2e be 01 23 e1 bd cf ec fc bd 3f 01 32 bc
       -0.17051432 -0.109930046 -0.12349855 -0.010864555
000270 0b ae 8b be 38 d6 d5 3d 2c 22 95 3d c1 05 a8 bc
       -0.27281222 0.104412496 0.072819084 -0.020510556
000280 9f c5 34 3d 1f 86 70 be b6 c0 32 be 35 31 b9 be
       0.04413378 -0.23488663 -0.17456326 -0.36170354
000290 91 aa 00 3e 59 4e ee bc 46 4f 49 be 5a 9b aa bd
       0.12565066 -0.029090093 -0.19659147 -0.08330412
0002a0 67 48 9a be 14 6b c9 bc 55 61 dd 3e 15 50 33 3d
       -0.30133364 -0.024587192 0.4323832 0.043777544
0002b0 e9 51 2d be ec f9 dc 3d 3b d1 04 3d 70 36 f5 bd
       -0.16925777 0.10789856 0.0324261 -0.11973274
0002c0 94 ca 19 3d c6 61 78 3d fd c7 36 be 4e 08 83 bd
       0.03754671 0.06064012 -0.17849727 -0.06398068
0002d0 0d 6c 07 3e 40 cb 68 3e c2 58 d2 3c be a9 73 be
       0.13224812 0.22733784 0.025677089 -0.2379522
0002e0 33 fb e6 bd cb dd ae 3d 2c de a5 bd de 95 52 be
       -0.11278381 0.085383974 -0.080990165 -0.20564982
0002f0 57 f1 cc be 27 1a 88 3e 61 ff cd be e6 d8 18 be
       -0.40027878 0.26582453 -0.402339 -0.1492649
000300 02 ab 60 3e 30 b2 82 3e 5d d4 e9 bd d8 04 18 be
       0.21940234 0.2552657 -0.11417458 -0.14845598
000310 9f 7b 09 3d e2 a2 23 be a5 f3 9c bc f1 cb e3 3d
       0.03356516 -0.15980104 -0.019159148 0.11122883
000320 c0 fc 95 be 67 cb 99 3d 74 d0 93 3c 64 42 a9 3e
       -0.29294395 0.07509499 0.018043734 0.33058465
000330 32 d5 88 3d 3d 30 02 3e 15 5b 93 bd 08 d0 2a 3e
       0.06681289 0.12713714 -0.07195107 0.1668092
000340 31 c7 a4 3d a6 77 ad be fd 83 83 bd d6 c3 22 be
       0.08045805 -0.33880347 -0.06421659 -0.15895018
000350 0b a3 30 3e ce bb 0f bc e2 0f a2 3d e8 c6 2b bd
       0.17249696 -0.0087728035 0.07913186 -0.04193774
000360 0a 56 f2 bd 75 d8 0e be 7b 7d 88 be 81 bf 07 be
       -0.11832817 -0.1394976 -0.26658234 -0.13256647
000370 e7 8f 1f be d3 d8 8b be 76 ac 89 bd cb 9e 12 3e
       -0.15582238 -0.2731386 -0.067223474 0.14318387
000380 58 13 46 bd 7c 7e 9b 3d f0 83 f1 3c bb 48 ed bd
       -0.04835829 0.07592484 0.029481858 -0.11586138
000390 10 38 84 be df af b2 3c 74 e5 85 bc ce 7e 9f bc
       -0.25824022 0.021812377 -0.016344763 -0.019469645
0003a0 c5 6c ca bc a8 96 4e 3b d3 19 e0 3e 1e 14 1f be
       -0.024710068 0.0031522904 0.43769702 -0.15535018
0003b0 dd e1 4f 3e 80 62 20 be 4a d4 18 be d7 2a a7 3d
       0.20301004 -0.15662575 -0.14924732 0.08162468
0003c0 44 40 1f be fb 29 45 be 52 79 c6 3d 63 5c f3 bd
       -0.15551859 -0.19254296 0.09691109 -0.11882856
0003d0 7e 99 52 3d ce 64 69 3e 1f 96 7c bd 93 f8 cc 3e
       0.051415913 0.2279236 -0.061666604 0.40033397
0003e0 aa b8 c0 bd 23 b2 c5 be 83 9c 92 be 5c 58 28 3e
       -0.09410222 -0.3861247 -0.28635034 0.16439956
0003f0 80 66 06 3c 56 9c d3 bd 75 77 3d be 22 83 ee bd
       0.008203149 -0.10332553 -0.185026 -0.11646105

linear2.weight f4 [3, 256]
000000 49 63 0a bf a3 38 20 be ed 13 ac 3e 47 c7 31 be
       -0.5405775 -0.15646605 0.33608952 -0.17361175
000010 a7 56 53 be ab 2b 37 be d9 d8 3d be 0e 1a 81 3e
       -0.20638524 -0.17887752 -0.18539752 0.2521519
000020 2e bc c7 3e 33 3f 64 bc b1 2e 49 be b0 f4 be 3d
       0.39010757 -0.0139310835 -0.19646718 0.09324014
000030 1d aa 13 3e 04 0a c1 3e 33 2f 74 be 53 d3 be 3e
       0.14420362 0.37702954 -0.2384613 0.37270603
000040 4f 47 a8 3e 02 e7 7d 3d 3a dc f3 bc 15 d3 47 be
       0.32866904 0.061987884 -0.029768098 -0.19514115
000050 3d ca 78 3d 40 dd 83 3a ef 1c 2e 3e f5 a5 58 bd
       0.060739744 0.0010060444 0.17003225 -0.052892644
000060 41 bb 7e 3e 01 1a b5 3e 81 c8 6c 3e 03 3b 51 be
       0.24876119 0.35371402 0.23123361 -0.20432667
000070 7f e8 ce 3e e0 23 c8 bb a2 ec 25 bf 28 ae 13 3e
       0.40411755 -0.0061077923 -0.648142 0.14421904
000080 38 ff a0 3e 75 a9 4a be d7 4b 90 bc 87 cc 4d be
       0.31444716 -0.19791205 -0.017614288 -0.20097552
000090 54 73 ed 3e 5a a6 64 bd 1b fa c6 3d e2 60 df bd
       0.4637705 -0.055822708 0.097156726 -0.10907151
0000a0 05 17 cd be 5d f2 c3 bc 8b 82 35 bf 54 b5 a3 bd
       -0.40056625 -0.023919279 -0.7090232 -0.0799357
0000b0 bd 48 e9 3e 48 20 0a 3c 18 d0 03 bf 6c 35 15 be
       0.45563307 0.008430548 -0.514894 -0.1457116
0000c0 00 df 8c 3b 16 22 90 be dc 4f 0e be 4e 53 76 3d
       0.0042990446 -0.28151006 -0.13897651 0.06013804
0000d0 78 35 98 3e 73 4d 87 bd 04 ae 5c be cc ed 62 be
       0.29728293 -0.06606569 -0.21550757 -0.22161025
0000e0 08 2f 9f be 23 4d 2e 3f 84 25 4a be 19 cd 19 3e
       -0.3109057 0.6808645 -0.19740874 0.15019645
0000f0 0f d8 a0 ba d9 80 f0 3e 29 49 47 3e 13 18 8e 3e
       -0.0012271422 0.46973303 0.19461502 0.27752742
000100 5d b1 13 bf 32 0b a1 be 19 27 5f be d7 b0 5a 3d
       -0.5769251 -0.31453854 -0.21792258 0.053391304
000110 38 41 5a 3d ff 91 3e bd 3b a5 c3 3e f4 49 e7 bd
       0.053284854 -0.04652595 0.38211998 -0.11293402
000120 d9 d9 dc bd 8d cd 95 bd a8 3e 5c bd 60 4f 32 bf
       -0.10783739 -0.07314596 -0.05377069 -0.69652367
000130 99 2f a0 3d f5 2f 3b 3d 24 91 a0 3e 89 44 38 be
       0.078215785 0.045700032 0.31360734 -0.17994894
000140 91 c4 bb be fc 0a ac be d9 98 86 be c3 67 ca be
       -0.36673406 -0.3360213 -0.26288489 -0.3953229
000150 34 bf 68 3e 1d 87 b3 3d e8 a5 e0 3d 71 9f 87 bd
       0.22729188 0.08766005 0.10969144 -0.06622208
000160 32 d6 0a 3e 7e a1 c1 3d 65 cc 12 3e d1 9e e2 3b
       0.13558272 0.0945463 0.14335783 0.006915905
000170 16 39 07 bf 4d a2 f4 3c d8 51 e3 3e 0e ff 0d 3e
       -0.5282148 0.029862547 0.4439838 0.13866827
000180 7a 35 1d 3e b5 fa 82 3c a8 66 8f bd d8 be 94 3d
       0.15352431 0.015988687 -0.07002002 0.07262963
000190 1b fe 02 bd 5b 53 10 3e 7d ff c7 be fd fe a1 3c
       -0.031980615 0.14094298 -0.3906211 0.019774908
0001a0 d9 ac 71 ba b8 bb 97 3c 6d fb 89 be 13 9e 59 3e
       -0.0009219177 0.018522128 -0.26949635 0.21251707
0001b0 e6 0c c0 be 9e 2d 92 be 1a 98 2a be 7a 04 04 bd
       -0.3750984 -0.28550428 -0.16659585 -0.03223083
0001c0 c7 17 9e 3d f2 a0 e3 3c d2 b7 4a 3e 42 03 46 be
       0.07719379 0.027786706 0.19796684 -0.1933718
0001d0 82 a7 49 bd 1b 85 e0 3d d4 66 6f 3e 76 74 f9 3d
       -0.049232014 0.10962888 0.2337907 0.12180416
0001e0 c7 bf c2 3a d0 61 2b be 57 90 8a ba 46 0b e5 3e
       0.001485818 -0.16736531 -0.0010571581 0.44735163
0001f0 55 91 ca be 77 d2 20 be d7 64 a6 3e 0d 91 6b 3d
       -0.39564005 -0.15705286 0.3249881 0.057511378
000200 49 64 35 bf b5 9f ee be 8d a7 74 bd b4 46 09 bf
       -0.7085615 -0.46606222 -0.0597301 -0.5362351
000210 65 3d 17 3e 69 d1 44 be 75 a6 b6 be 3f d4 1e 3c
       0.14769514 -0.19220509 -0.35673872 0.009694158
000220 27 93 21 3d 97 f9 f0 3d 85 69 f0 bc 3b 98 0e 3e
       0.039446976 0.117663555 -0.02934719 0.13925259
000230 4d 92 f8 bd 43 d1 23 3e ed d2 a4 be 78 6c 83 be
       -0.1213728 0.15997796 -0.32192174 -0.25668693
000240 8a 38 6c be 19 80 25 3b 52 6b 06 bf 3d e4 d5 be
       -0.23068443 0.0025253354 -0.5250751 -0.41775694
000250 c8 6d be 3e a2 32 d2 3d 93 44 10 bd 20 1f 4f be
       0.3719313 0.10263564 -0.035221647 -0.20226717
000260 56 04 d2 bc 05 42 36 be b0 2a 93 bd 6b be de bd
       -0.025636833 -0.17798622 -0.07185876 -0.10876163
000270 c1 48 09 3e f1 02 cd 3e 97 2b 89 bd 34 75 25 be
       0.1340666 0.40041307 -0.06697767 -0.1615799
000280 ac 03 3a 3e 3e a6 9f be af 92 4b 3e 05 64 0b be
       0.18165463 -0.3118152 0.19880174 -0.13612373
000290 e9 68 ec 3e af 09 47 bd 87 c5 88 be ef e5 b6 3c
       0.4617379 -0.04859322 -0.267132 0.022326438
0002a0 11 4c 1e be 04 59 b1 bd d8 24 a2 3e 04 d4 b0 3d
       -0.15458705 -0.086595565 0.31668735 0.08634189
0002b0 aa d0 ba bd 66 20 1f 3e c9 d0 6b 3e 1d 38 6f be
       -0.09121831 0.15539703 0.23028864 -0.2336125
0002c0 da 3e 6e be 49 f5 0a 3e a2 fd 31 3d aa 57 06 bf
       -0.23266163 0.13570131 0.043454774 -0.52477515
0002d0 99 2a 05 3f 41 27 b0 3e 03 42 0d be ba 12 33 be
       0.52018124 0.34404948 -0.13794713 -0.17487612
0002e0 bf 80 60 be 18 cf 89 be 85 1b d3 be bd 86 0b be
       -0.21924113 -0.26915812 -0.41231933 -0.13625617
0002f0 c5 29 54 3d 42 21 f6 3d 05 08 24 bd 5a 6e 78 bd
       0.051797647 0.12018062 -0.04004671 -0.060652114
000300 9d 53 83 3d 4c 86 d3 3e bf c6 d8 bd 42 2d b5 be
       0.06412432 0.41313398 -0.10584783 -0.3538609
000310 ba 50 7a 3e 88 af 47 bd a3 16 25 3d d3 36 2b be
       0.24444857 -0.048751384 0.04030479 -0.16720133
000320 b7 84 ff bd 59 be 10 3f 1c 9f 19 be 0a 2a 34 3e
       -0.12476485 0.5654045 -0.15002102 0.17594162
000330 e4 de 02 3d 41 ab 9c 3c b8 0d e5 bd e5 d9 7e 3e
       0.031950846 0.019124629 -0.11184257 0.24887808
000340 3e cd f9 be 6a 99 88 be 54 ec 57 3d c0 23 52 3d
       -0.487894 -0.26679546 0.052715614 0.051303625
000350 3b c5 73 3e a7 b5 57 be 36 2f 95 3d 0e 90 21 be
       0.23805706 -0.21065389 0.072843954 -0.15777609
000360 b0 29 12 be 81 b3 95 bd 6f 22 bf be 8a 50 35 be
       -0.14273715 -0.07309628 -0.37330958 -0.17706504
000370 85 31 9a 3e 5f a8 2e be 4c d0 c4 bd 35 6d 6a 3e
       0.30115905 -0.17056416 -0.09610042 0.22893222
000380 34 f9 81 bd 6a 66 ba 3c 5b 2f 08 3f 1d 57 61 be
       -0.0634636 0.022753913 0.5319726 -0.22005887
000390 b3 1b 2f 3e 27 b6 50 3c 50 4c 25 3c 1c 47 95 3e
       0.1710041 0.012738741 0.010088995 0.29155815
0003a0 b9 b2 13 bf 19 e6 47 be 00 32 97 3e b3 86 96 be
       -0.57694584 -0.19521369 0.29530334 -0.29399642
0003b0 35 7e dd 3e 13 81 03 bd a8 67 80 bd ed 8d 45 be
       0.4326035 -0.032105517 -0.06269771 -0.19292422
0003c0 18 e1 d9 be 52 c5 6a be 4c 3a 6c 3d 64 1c 86 bd
       -0.42554545 -0.22926834 0.057672784 -0.06548384
0003d0 14 01 67 be 94 7c 75 3e 60 b0 b4 3e 0f e0 ce 3e
       -0.22559005 0.23973304 0.35290813 0.40405318
0003e0 41 24 a2 3d 12 09 9c 3c 2d ea e6 3c d1 0c a9 3e
       0.07917071 0.019047294 0.028187836 0.3301759
0003f0 0b cb d6 be 14 53 be bc 76 2c a8 bd a2 a2 69 bd
       -0.41951784 -0.023232974 -0.08211605 -0.057039864

linear2.bias f4 [3]
000000 51 6c 3b 3e da d9 87 3d 74 ac 31 bd
       0.18303038 0.06633349 -0.043377355
